pytorch/Modular/models/tinyvgg_model.pth (torch, 93647 bytes, 10 tensors)

weight f4 [20, 3, 3, 3]
000000 47 d3 0f be 80 bf 33 be 8e 14 1c bd 76 1f 09 be
       -0.1404544 -0.1755352 -0.03810554 -0.13390908
000010 66 43 1d 3e 42 59 03 ba 4e 4e be bd 85 64 af bc
       0.15357742 -0.0005010554 -0.09292279 -0.021410236
000020 42 ce eb bd 35 b8 2a 3e 5c 64 08 3e c4 3f 15 3e
       -0.1151395 0.16671832 0.13319534 0.14575106
000030 ed 06 25 be 34 7d 01 3e eb ac a4 bc 4a 13 59 bc
       -0.16115923 0.12645417 -0.020101985 -0.013249228
000040 1a 11 c5 3d 76 fb de 3d e9 14 03 bd 8e 18 ed 3c
       0.096224025 0.10887806 -0.032002363 0.028942373
000050 cf f4 27 3d 8b 0a f0 bd 5c cf a0 3d 7c cb 1b 3e
       0.041004952 -0.11720761 0.07852051 0.15214342
000060 07 13 04 be 2a b2 b1 3c c0 13 1d 3d 10 34 b0 3d
       -0.12897883 0.0216914 0.038348913 0.0860368
000070 e9 09 a1 bd dc 72 e1 bd 43 bd 0d 3e 26 8e ee 3c
       -0.07863218 -0.11008236 0.13841729 0.029120516
000080 29 ea 2d 3e 4b 12 87 3c 06 66 35 be ac 1f 1c 3e
       0.16983856 0.016488215 -0.177147 0.15246457
000090 10 51 ac bd b5 b1 37 bd 20 8b 24 be da 1b 13 bc
       -0.08413899 -0.04484721 -0.16068697 -0.008978808
0000a0 92 10 0d 3e b3 4b 0f be 8e cc 0f 3e 86 74 b0 3d
       0.13775852 -0.1399372 0.14042875 0.08615975
0000b0 1b 46 ef bd 56 3a 83 bb 49 1d e0 bd cc 66 01 be
       -0.116832934 -0.004004757 -0.10943086 -0.1263687
0000c0 a0 54 2d 3e 76 4b 22 be e4 1e 36 be ab 8b 92 3d
       0.16926813 -0.15849099 -0.17785221 0.07155546
0000d0 56 b4 2a 3e 78 a6 7c bd 6b d8 34 be cd 23 8a 3c
       0.16670355 -0.061682194 -0.17660682 0.016862774
0000e0 cc 7e 16 3e 6f 7f f3 3d c7 00 14 3e a6 dd 85 bd
       0.14696807 0.118895404 0.14453422 -0.06536417
0000f0 6e 6f 3f be 13 b8 19 be ac 45 04 be d0 c5 33 3e
       -0.18694851 -0.15011625 -0.12917203 0.17555928
000100 23 05 b9 3d 4a ea 32 be 84 12 51 3d 2f fd 29 3c
       0.09034183 -0.17472187 0.05104305 0.010375305
000110 30 fa 67 bc 32 1f 30 3e 6b 35 b7 bd 1b b0 19 be
       -0.01415877 0.171994 -0.089457355 -0.15008585
000120 3e a7 01 bd 0f 70 c0 bd 17 b2 46 be a8 aa 16 be
       -0.031653635 -0.093963735 -0.19403873 -0.14713538
000130 22 e6 04 3c eb ed 86 3d f1 ca f5 bd 09 8c a1 bd
       0.008111509 0.06588348 -0.120015986 -0.07888038
000140 43 63 14 3e bb f7 26 be 05 43 b7 bb 0c ae 46 be
       0.1449099 -0.16305439 -0.005592706 -0.19402331
000150 f4 38 ef 3d b8 60 80 3d b2 42 0c be c8 cb c0 bd
       0.11680785 0.06268448 -0.13697317 -0.09413868
000160 36 b3 20 be 61 32 1d 3d 83 7a 3a 3e 89 d7 09 bd
       -0.15693364 0.038378123 0.18210797 -0.033652816
000170 56 c9 f6 bc 29 4b b5 3d 80 83 96 bd 5a fb dd 3d
       -0.030125301 0.08852226 -0.073493004 0.10838957
000180 08 dc 5d bc c6 48 70 3d 4e e3 36 bc ef 70 f5 bd
       -0.013541229 0.058663152 -0.011162592 -0.11984431
000190 56 c1 72 3d 54 9b e6 3b c8 6c 07 3e d7 6e 36 3e
       0.05926641 0.0070375595 0.1322509 0.1781572
0001a0 74 36 0a 3d db b0 f6 bd ff ae 1a 3e 86 1d 1e be
       0.033743337 -0.12045451 0.15105818 -0.1544095
0001b0 b0 06 c2 bc 13 5e 33 3e 9f dd cc bd 40 0b 3f 3d
       -0.02368483 0.17516355 -0.10003208 0.04664159
0001c0 f8 b3 3b be 40 c5 95 3d 5f b8 30 3e e9 d5 84 3d
       -0.18330371 0.07313013 0.17257832 0.064861126
0001d0 58 e3 cb bd 52 d8 a7 bd 6f 9d 1c 3e 97 23 38 be
       -0.09955472 -0.08195557 0.15294431 -0.17982326
0001e0 98 de 18 3e dd 04 21 bd 64 6e f7 3c 8a 7d 14 3e
       0.14928663 -0.03931128 0.030204006 0.14501014
0001f0 c7 4c 45 3d 17 0c 98 3c b1 b4 14 be 41 5b 97 bd
       0.048168924 0.018560452 -0.14522053 -0.07390452
000200 fa 9d 32 3d f2 6c 0d 3e b7 e5 61 bd e8 42 fa bd
       0.04360769 0.1381109 -0.055150714 -0.122197926
000210 57 02 12 be 1d da 48 be be 06 6d 3d 66 de 21 3e
       -0.14258705 -0.19614454 0.057867758 0.15807495
000220 bf 48 ae 3d f3 f5 ed 3d 0e a0 de 3d c6 31 de bd
       0.08509969 0.11619177 0.10870372 -0.10849337
000230 a9 b4 42 bc 3f c9 17 3e 5a 28 20 be fe a2 07 be
       -0.011883893 0.14822863 -0.15640393 -0.1324577
000240 42 41 41 3e 9e 6a 85 bd f6 fe 39 3e ef 6f b5 bd
       0.1887255 -0.06514476 0.18163666 -0.0885924
000250 f7 1c 24 3d 43 e8 17 3e 1d 18 14 be 92 5c 90 3d
       0.040066686 0.14834695 -0.14462323 0.070489064
000260 45 55 e4 3d c4 6d f7 bd 95 aa b6 3d 35 1e ef 3d
       0.11149076 -0.12081483 0.08919255 0.116756834
000270 90 eb e8 bd 45 d5 d1 3c 15 17 e5 bd 07 3e c1 bd
       -0.11373055 0.02561439 -0.11186043 -0.09435659
000280 b2 1e 5f bd 10 1c 9e bd bb 66 bf bc 40 fd 83 3c
       -0.054472633 -0.07720196 -0.023364415 0.01611197
000290 ff 72 e3 39 48 b8 2a 3e 40 32 42 3e 81 e0 04 be
       0.00043382493 0.1667186 0.18964481 -0.12976266
0002a0 8b 82 06 bd ed ec 36 3e ef 54 2c be e8 b7 6e 3d
       -0.03283934 0.17863818 -0.16829275 0.058280855
0002b0 5e 29 be 3d a9 d0 ff bd 97 0a 1d 3e 35 cc f7 3d
       0.09285234 -0.12490971 0.15336071 0.12099496
0002c0 80 75 65 3d 84 fc 00 3e 82 64 86 bd f4 9b 44 3e
       0.05602026 0.12596327 -0.06562139 0.19200116
0002d0 aa a5 f4 3d f2 68 fa 3d 78 ef c1 bb dc a8 ef bd
       0.119456604 0.12227048 -0.0059184395 -0.11702129
0002e0 e6 ad 84 3d 90 2a 2b 3e 95 6a 98 bd 09 3e 2b bd
       0.06478481 0.16715455 -0.07442204 -0.04180721
0002f0 60 58 07 be 8f c9 07 be 3a ba a1 bd 1f df 74 bd
       -0.13217306 -0.13260482 -0.07896848 -0.059783097
000300 f8 9e 91 3d 40 69 14 3e b4 43 35 be b6 84 12 3e
       0.07110399 0.14493275 -0.17701608 0.14308438
000310 a7 58 77 3d 75 97 84 bc 14 3c 08 be f8 6e 91 bd
       0.06038728 -0.016185502 -0.13304168 -0.07101244
000320 ac 81 00 be d8 df 1a be 99 b1 00 be 09 d0 1a 3e
       -0.12549466 -0.15124452 -0.12567748 0.15118422
000330 36 8e 10 3e 64 3b 2c 3e cb 1b f6 bd 9a bc b1 bd
       0.14116749 0.1681953 -0.1201702 -0.08678551
000340 1c c6 42 be 93 aa b9 bd 7d 31 12 be aa 17 95 bd
       -0.19020885 -0.090657376 -0.14276691 -0.07279904
000350 32 ca 42 3d 67 67 3d bd 94 f5 15 3e 23 c7 47 bd
       0.04755611 -0.04624119 0.14644462 -0.048773896
000360 bd 0b 03 be c9 b9 20 bc df f1 ca 3d 60 c5 06 3e
       -0.12797447 -0.00980992 0.099094145 0.1316123
000370 9a a1 9c bd 92 f5 fb 3d 68 03 4a bc 5b 53 61 bc
       -0.076480106 0.12302698 -0.012329914 -0.013752784
000380 20 8b 2f 3e 81 25 85 3d 8e 66 27 3e e8 60 0c 3e
       0.17142916 0.06501294 0.16347715 0.13708842
000390 74 54 e0 3d 54 49 3c be cd a1 43 3b 08 86 60 3d
       0.10953608 -0.18387347 0.002985108 0.054815322
0003a0 27 f5 f8 3d a9 28 91 bd 49 72 18 be 41 25 90 3d
       0.12156134 -0.070878334 -0.14887346 0.070383556
0003b0 bd bb 9a 3c a4 ee 3e be 3d 8d a1 3d 30 98 f8 3c
       0.018888349 -0.18645722 0.07888267 0.030346006
0003c0 07 63 ea 3d e9 c3 3e 3e ff 06 a2 3d 61 b6 ff 3b
       0.11444669 0.18629421 0.07911491 0.0078037237
0003d0 e8 2a 3e be 17 d4 3b be d8 2f 12 bd e4 78 9b bd
       -0.18571055 -0.18342625 -0.03569016 -0.075914174
0003e0 94 f2 3c 3d c1 57 2f 3e d6 65 bb bd 13 06 e3 bd
       0.046129778 0.17123319 -0.09150283 -0.11085143
0003f0 4d 48 45 be 11 13 0b be 63 b3 7d 3d 44 a5 38 3e
       -0.19265862 -0.13581492 0.061938655 0.18031794

bias f4 [20]
000000 cb 2a 18 3e 5d 40 88 3d c4 8f aa bd fb c7 30 3e
       0.14860074 0.06652901 -0.08328202 0.17263786
000010 ef 8d 87 3d bf 91 02 be 02 03 0c be d2 63 a4 3b
       0.066188686 -0.1275091 -0.13673022 0.0050167823
000020 6c fc 93 bd ec 3e 1f 3e 0a 17 3b 3d 47 ef 28 be
       -0.0722588 0.15551347 0.04567627 -0.16497527
000030 33 8c db 3d c3 b7 fa 3d 7e e4 36 3e 4f cc 53 bd
       0.107201 0.12242081 0.178606 -0.051708516
000040 56 0d 07 3e a4 c5 cd 3c 5b b5 c6 bd 87 28 a3 3d
       0.13188681 0.025118656 -0.097025596 0.07966714

weight f4 [20, 20, 3, 3]
000000 3d 08 ca bc 59 b8 e1 bc 80 2c e7 3c 6a f3 7c bd
       -0.024662131 -0.027553724 0.028219461 -0.061755575
000010 96 a4 df 3c 88 8b 7d 3d b5 9c 28 bd c2 08 79 3c
       0.02730016 0.061900645 -0.041165072 0.015199842
000020 b7 6c 8c bd 6b 5f 46 3b 8a 03 76 bd 8e 8b 52 bc
       -0.06856673 0.0030269276 -0.06006197 -0.012850655
000030 d7 fa b9 3c 55 f8 4e bb 94 d6 34 3d f4 cc 61 3d
       0.022702618 -0.0031581123 0.04414995 0.0551271
000040 51 a6 0d 3b 8e 2b 86 3d 40 ce 8d 3b 73 52 85 3d
       0.0021614025 0.06551276 0.0043275654 0.065098666
000050 31 2f 90 3d 6a 7c a5 3c b8 a4 ed 3c 64 88 c9 3c
       0.07040251 0.020200927 0.029009208 0.024601169
000060 6f 22 cb bc 9f 3e 75 bd 1b cc 1f bd bd e6 83 bd
       -0.024796693 -0.059874173 -0.03901301 -0.06440494
000070 26 a7 95 bc 9e ef 1b bd 26 26 64 bd 34 11 63 3d
       -0.01826818 -0.038070314 -0.055700444 0.055436328
000080 aa c6 93 bd 26 3c a4 3c 71 e6 7b bd 3f 98 50 bd
       -0.072156265 0.020048212 -0.061499063 -0.050926443
000090 92 ce 84 bd d4 9d 90 3d 21 c6 2c bd 76 f5 31 bd
       -0.06484713 0.07061353 -0.042181138 -0.04344698
0000a0 a7 91 1e bc bb ac c1 3b 5e e3 76 3d 89 ac 6a 3c
       -0.009678281 0.0059104837 0.060275428 0.014323362
0000b0 fc 3e 8c 3d 62 43 4c bd 9d ec 5c 3d 32 ae 78 3d
       0.06847951 -0.04986895 0.05393659 0.060713
0000c0 d0 83 3a bd a2 07 85 bd 22 6e ac bc 1d b2 ce 3b
       -0.045535862 -0.064955965 -0.02104861 0.006307854
0000d0 29 d7 ad bc 21 f0 64 3d 80 80 01 3d b0 82 07 bd
       -0.02122076 0.055893067 0.031616688 -0.033083618
0000e0 ad 47 6a 3d 99 fe 72 3d 8e 4a 1d 3d 33 04 6a 3d
       0.05719726 0.059324834 0.03840118 0.05713291
0000f0 8a ca 91 3d c9 ec 21 3d 6c 63 93 bd b4 a6 24 bd
       0.071187094 0.039532457 -0.071966976 -0.040198043
000100 0a 98 ed 3c 11 1b 81 3c b1 ed 88 3d 0b 0f 3a bd
       0.029003162 0.015759977 0.06685961 -0.045424502
000110 8a 32 d6 bc b4 5b 4a 3b bc e7 4f bd f8 85 7f bd
       -0.026147146 0.0030877413 -0.05075811 -0.062383622
000120 cf 2b 82 3d 7f 95 22 bd 9c 4e 81 3d 5d 3d 16 3d
       0.06356012 -0.03969335 0.06313822 0.036679614
000130 b9 8f 17 bd 38 a2 f5 bb 1e 56 7d bc f8 ec 15 3d
       -0.0370023 -0.0074961446 -0.0154624265 0.036602944
000140 85 2a 16 bd d0 5f 2b 3b 30 cb 8d bb db 2a 1e bc
       -0.036661644 0.0026149638 -0.0043272004 -0.009653772
000150 36 98 a6 bd 5a 37 04 ba 69 43 0d 3b 2f 85 f4 bc
       -0.08134501 -0.00050436484 0.0021555072 -0.029848663
000160 a7 a9 dc bc 8b 4d 38 3d 68 36 85 bd e3 21 72 3d
       -0.026936365 0.044995826 -0.06504518 0.05911435
000170 ea 00 07 3d 1d 85 4c 3d 1f 65 8a bd 84 cd 82 3c
       0.032959856 0.049931634 -0.067575686 0.015967138
000180 6a 71 75 3c 32 78 74 3d b1 f4 ab ba fb 58 27 bd
       0.014980653 0.05968494 -0.0013119188 -0.040856343
000190 36 b0 b6 3b c6 4e 70 3d 1d 06 0d bd 61 b1 f6 bc
       0.005575205 0.058668874 -0.03442966 -0.030113878
0001a0 9b f7 d8 3c 7d f7 75 3d 78 66 62 3c a2 69 0d 3d
       0.026485255 0.060050476 0.013818376 0.034524567
0001b0 a8 c5 e4 bc 49 1d 15 bd 21 c0 4b bd f3 65 fc 3c
       -0.027926281 -0.03640488 -0.049743775 0.030810332
0001c0 f4 57 1a 3c 46 13 6f 3d 52 c6 2c bc 2f 20 62 3d
       0.009420384 0.05836799 -0.01054533 0.055206474
0001d0 d0 b0 4d 3c 14 0f 59 bd 58 a5 50 bd 05 39 2d 3c
       0.012554362 -0.052992895 -0.050938934 0.010572677
0001e0 ac e6 6c 3c 62 f2 88 bd d6 5b 65 bd f1 b0 cd 3b
       0.014459293 -0.06686856 -0.055995785 0.0062771966
0001f0 3b 28 f6 3b f7 00 85 bd b2 b5 74 3d 1f 8b 4b bc
       0.00751212 -0.06494325 0.05974359 -0.012423306
000200 b0 01 1c bd b2 7a 6e 3d bb e4 49 bd 68 c8 97 bc
       -0.038087547 0.05822248 -0.0492904 -0.018528178
000210 38 ab e2 bc 15 e6 1d 3d 48 c2 2d bd a2 54 3b 3d
       -0.027669534 0.0385495 -0.04242161 0.04573501
000220 ff 48 a2 3b dd c8 c0 3b 8d 23 64 bd 95 f5 64 bd
       0.0049525495 0.00588332 -0.055697966 -0.055898268
000230 09 c8 e9 3c 07 b4 40 bd a4 cc 91 3d 8d c2 86 bd
       0.028537767 -0.047046687 0.0711911 -0.06580076
000240 cf 5e 26 3d 76 1a af bc f1 fc 71 bd a1 af dc bc
       0.04061776 -0.021374922 -0.059079114 -0.026939215
000250 26 f7 fe 3c 81 38 24 bc 21 15 33 bd 66 a5 99 bd
       0.031123709 -0.010023237 -0.043721322 -0.075022504
000260 3b 4f 3d bc a9 f1 82 bd 53 e9 af bc 9b 9b 2d bd
       -0.011554535 -0.06393749 -0.021473562 -0.042384725
000270 92 46 15 bd 7f 42 88 bd 75 1b 4a bc 26 9b 15 bc
       -0.036444254 -0.06653308 -0.012335648 -0.009131229
000280 0a c2 ab bc 83 bb ee bc 54 50 89 bc e7 72 76 bd
       -0.020966548 -0.029142147 -0.016761936 -0.060168173
000290 40 74 42 3c dc fe 47 bd 20 aa bb bc 00 90 05 b8
       0.0118685365 -0.048827037 -0.02290827 -3.184378e-05
0002a0 f8 2c d1 3c 4c da 4a 3d 82 ed 62 3d c3 1b 85 3b
       0.025534138 0.04952459 0.055402286 0.0040621473
0002b0 1b ba c8 bc a3 b5 9b bd c0 92 ce bc 77 e6 2f 3d
       -0.024502805 -0.07603004 -0.02521646 0.042944398
0002c0 2b c8 9d bd 53 13 03 bd bd f7 7b bd 73 3d fb bc
       -0.07704195 -0.03200085 -0.06151556 -0.03066895
0002d0 0b 3c de 3c 30 ad a8 3c 64 15 ba bb e1 f7 d6 3a
       0.02712824 0.020590395 -0.0056788195 0.0016400778
0002e0 3a ed eb bc 83 8e 5b 3d 67 4f 5e 3d 7b ae 83 bd
       -0.028799642 0.053602707 0.054274943 -0.06429764
0002f0 0d 0c ba bc 1f 01 6a bd a8 17 e8 3c 13 bf 5b 3c
       -0.022710824 -0.057129975 0.028331593 0.013412255
000300 a7 c3 be 3c 70 ac ce 3c 8d c0 1d bd bf 6e 4d bc
       0.023286654 0.025228709 -0.03851371 -0.012538611
000310 bb d7 01 3d 74 12 dc 3b 0c 0d 34 3d a8 d7 82 bd
       0.031699877 0.006716067 0.043957755 -0.063887894
000320 2c 2d 13 bd cd e8 cd 3c d0 67 17 bd 57 e6 9c 3c
       -0.03593175 0.025135422 -0.036964238 0.019152803
000330 c5 2e 44 3d 29 2f 82 3d 02 8a 31 3d 26 55 60 3b
       0.047896165 0.06356651 0.043344505 0.003423044
000340 17 25 63 3d e9 e1 5d bd 0e e4 f1 bc 64 9d 72 3c
       0.055455294 -0.054170523 -0.02952769 0.014808033
000350 c5 f0 73 bd 3c e3 eb bc 48 29 f5 3b 42 59 39 bc
       -0.059555788 -0.028794877 0.0074817277 -0.011312785
000360 eb 5a f9 bc 22 b3 18 3c c3 2a 03 3d 3b a6 dd 3c
       -0.03043886 0.009320052 0.032023203 0.027056804
000370 c4 2b 3a bc d4 23 33 bd 28 0d 80 bd fa 0c b1 bc
       -0.011362974 -0.04373534 -0.06252509 -0.021612633
000380 e7 25 89 3d 9a 87 8e 3d 7c c3 85 3b 10 b9 90 bb
       0.066966824 0.06959458 0.0040821414 -0.0044165924
000390 3c a1 23 bd 21 e5 43 bd 5c 73 0d 3d 59 e8 a0 3b
       -0.039948687 -0.047825936 0.034533843 0.0049105105
0003a0 b6 b9 a9 3d b0 2d 95 3d 4e 1a 0f ba d7 2e 03 bd
       0.08287375 0.07284105 -0.0005458937 -0.03202709
0003b0 4a 80 a4 3d e9 86 0a bd 02 6a 59 bd e9 09 4b 3d
       0.08032282 -0.033820067 -0.053079613 0.049569998
0003c0 35 ff 3f bc b6 fb 79 bd 93 bc 63 bd 2e 81 6f 3d
       -0.011718561 -0.061031066 -0.05559976 0.058472805
0003d0 4e bd cf bc 5d b3 dc bc 2c 64 03 bd 29 25 84 3c
       -0.025358822 -0.026940996 -0.032077953 0.016131
0003e0 f7 40 20 bd c9 e9 9b 3d 72 8a 79 3c dd aa 5e 3d
       -0.039124455 0.0761295 0.015230762 0.054362167
0003f0 5d 54 21 bc 78 88 ab 3c 0c a1 a3 bb c3 66 01 3d
       -0.009846774 0.020939097 -0.0049935635 0.03159214

bias f4 [20]
000000 ef df 6a 3d 81 96 1e 3d 2e 72 af 3c 29 87 96 3c
       0.057342466 0.03871775 0.02141675 0.018374996
000010 bc 51 53 3c 55 2f bd 3c b0 2b 88 bd 94 1a 93 3d
       0.012897905 0.023093859 -0.06648958 0.07182804
000020 5b 8a 87 3d 63 c0 f8 bc f7 6a 26 3d 24 c2 06 3d
       0.06618186 -0.030365175 0.040629353 0.03289999
000030 76 42 35 3d dd 57 8f 3d 71 b5 86 bd 52 fc 52 bd
       0.044252835 0.069991805 -0.06577576 -0.051510163
000040 72 e2 a5 bd cc 8c 6f 3d 19 e7 63 3c 08 05 ff bb
       -0.08099832 0.058483884 0.013910078 -0.007782582

weight f4 [20, 20, 3, 3]
000000 62 d0 bc bc 8e 3e 2e bd be 5e 71 3d 9b e5 14 3d
       -0.023048583 -0.042540126 0.058928244 0.03635178
000010 a5 3f 46 3c af 95 1b 3c a4 41 7e bd 0c c6 0c 3d
       0.012100135 0.009496137 -0.06207432 0.03436856
000020 b5 31 5d 3a 70 be 29 3d 91 7a 9c 3d 35 3f 55 3c
       0.0008437888 0.04144138 0.07640565 0.013015558
000030 ea d2 03 3d 93 32 93 3d d0 6a 65 bc 69 d8 39 bc
       0.032183565 0.07187381 -0.014002517 -0.0113431
000040 9c 39 9a 3c 9b 69 93 3d a4 85 5a 3c 1f 1a ae 3c
       0.018826298 0.07197877 0.0133375265 0.02125269
000050 01 14 f6 3c dd b7 88 bd 76 64 7b bd f5 7d b0 bc
       0.030038835 -0.06675694 -0.061375104 -0.021544436
000060 b0 1c f3 bc 19 22 a3 3c 4b 0d d8 bb f4 e7 1c 3d
       -0.029676765 0.01991372 -0.0065933815 0.038307145
000070 f2 67 4e bd f9 e2 c8 bc 34 7c ad bc 7f 4e 48 3d
       -0.0503921 -0.024522291 -0.021177389 0.048902985
000080 77 ed 5d 3c c8 3b 3b bc fb 7d 1d 3d b0 09 83 3d
       0.013545386 -0.011427827 0.038450222 0.06398332
000090 62 61 d1 3c 7b c9 fa bc 48 28 1d bd 6a e9 84 3d
       0.025559131 -0.030613651 -0.038368493 0.06489833
0000a0 9b 11 8b 3d 49 28 91 3d 3f e6 3f bd 2d e2 d0 3c
       0.06790467 0.07087762 -0.04685044 0.025498474
0000b0 dd e2 9c 3c 1a d9 67 bd 15 93 84 bd 17 eb 92 bd
       0.019151146 -0.05660353 -0.06473366 -0.07173746
0000c0 b8 a8 59 3d 7a e2 10 bd ec 3a 2e 3d fe 19 4f 3b
       0.05313942 -0.035372235 0.04253666 0.0031601186
0000d0 e5 46 d0 3c 8f 7d 96 3d d5 06 27 bc 34 f4 bd bc
       0.02542443 0.07348167 -0.0101945 -0.023187734
0000e0 32 7e ab 3c 5d c9 a8 3d 3d b3 86 3d 5e 29 4b bd
       0.020934198 0.08241532 0.06577156 -0.049599998
0000f0 ae d2 3e 3d cc 92 6e 3d 63 76 a4 3d 4a d4 9c bd
       0.04658764 0.058245465 0.08030393 -0.076576784
000100 45 31 76 3d bb 9c 07 bd b5 85 ac 3c d3 e7 8c 3d
       0.06010558 -0.033108454 0.02105985 0.068801545
000110 43 97 09 3d c5 40 9c bd 32 12 33 bd f7 dc 85 bd
       0.03359152 -0.07629541 -0.043718524 -0.06536286
000120 42 c9 e4 3c 23 d1 95 bd 1d a2 c1 bc ff c1 28 bd
       0.027927998 -0.0731528 -0.023636872 -0.041200634
000130 77 c6 b7 bc 04 9f 21 bc fe ca 18 3d b9 f3 f7 bc
       -0.022433503 -0.009864572 0.037302963 -0.030267583
000140 83 b0 5b bd 90 b8 27 3d 97 51 75 bd dd 48 fd 3c
       -0.05363513 0.040947497 -0.059892263 0.030918533
000150 1a e9 2f 3b ee 17 8c 3d b4 2e 84 3d f1 53 7f bd
       0.002684182 0.06840502 0.064542204 -0.062335912
000160 e1 ca 60 3d 86 01 12 3d 30 0b 70 3d c6 c6 fe 3c
       0.05488098 0.035645984 0.05860442 0.031100642
000170 8a e5 0f 3a b9 42 22 3d d7 3b fe bb 30 d1 31 3d
       0.0005489221 0.039614413 -0.0077585983 0.043412387
000180 19 30 56 bd b0 6a a2 bc 61 52 0a bd 04 64 09 3d
       -0.052291963 -0.019826263 -0.03376997 0.033542648
000190 1d f6 88 bc 05 91 ea bc 54 8d 8b 3d 1f ac 24 bc
       -0.016718918 -0.028633604 0.068140656 -0.0100508025
0001a0 97 af 34 bc 52 20 21 3d 1a 17 56 3d f9 eb 18 3d
       -0.011028192 0.039337464 0.052268125 0.037334416
0001b0 95 e7 9c 3d d3 d1 51 3d e3 b4 18 3d 72 aa 7a bd
       0.07661358 0.051225495 0.037281882 -0.061197706
0001c0 75 45 47 3c 6c 8c 8a bd 42 51 65 3d 05 ad 6b 3d
       0.012162556 -0.067650646 0.055985697 0.05753805
0001d0 a0 78 32 bd 08 80 45 bd 9c 46 a0 bc 75 a1 39 3d
       -0.04357207 -0.048217803 -0.01956492 0.045319993
0001e0 e6 fa c9 3c 3e c9 d9 3b 18 bb 72 bd e1 e3 4f 3d
       0.02465577 0.0066463044 -0.059260458 0.05075443
0001f0 d5 cf 88 3d 0b c0 22 3d dd 39 d7 3c a3 4a fe bc
       0.06680266 0.039733928 0.026272709 -0.031041449
000200 61 81 0b bd 89 bb 70 bd a2 2b 97 bd 1c 84 24 bd
       -0.034058932 -0.058772597 -0.07381369 -0.04016505
000210 10 9f 6f 3c a0 5e 1f bc 96 80 62 3d cf b4 88 3d
       0.014625326 -0.00972715 0.05529841 0.066751115
000220 cd f3 2a bd 2c 19 85 3d 79 82 4c bc 1f 5b 61 3d
       -0.041736413 0.06498942 -0.012482279 0.05501854
000230 5a 23 50 bc e2 5a 0b 3d a9 6a 58 bd d4 c7 34 3d
       -0.012703741 0.03402222 -0.052836094 0.044135883
000240 3f af 3e bd 46 83 08 bc 95 cb 5e bd 7c 66 8b 3d
       -0.046553846 -0.008332079 -0.05439337 0.06806657
000250 c1 fa ce 3b 30 b6 5f 3d a4 41 2e 3c e2 15 2d 3d
       0.0063165133 0.054617107 0.010635767 0.042257197
000260 9e f1 0b bc f3 c2 89 bc 9b 6c 57 3d 3a 00 d3 3a
       -0.008541493 -0.016816592 0.05259381 0.001609809
000270 b5 0b 50 bc 22 ca 2c 3d 13 ba e1 bc 0d 89 b0 39
       -0.012698104 0.042184956 -0.027554547 0.00033671447
000280 93 8a 14 3d 7b c3 17 bc 5e d3 6f bd fe 70 fc bc
       0.036264967 -0.009262915 -0.058551185 -0.030815598
000290 6e 1f 1c bd 3b bd 31 bd c2 9d 6e bd 88 79 68 3d
       -0.03811591 -0.043393355 -0.05825592 0.056756526
0002a0 a6 a0 83 bd 05 b7 c5 3c 39 c2 f7 3c f7 e6 28 3d
       -0.06427126 0.024135122 0.03024398 0.04123589
0002b0 d4 09 9f bc b2 c9 52 3c 9c 76 2a bd 3a b8 66 3c
       -0.019413866 0.012865471 -0.04161702 0.014082009
0002c0 c2 25 97 bc 71 63 3b bd 51 63 91 3d b4 08 f7 3c
       -0.018450622 -0.04574913 0.07099021 0.030155517
0002d0 11 4d 4b 3d d7 b2 1c bd 63 dc f9 bc d5 73 1d 3d
       0.049634043 -0.038256492 -0.030500596 0.038440544
0002e0 20 51 f1 bc f4 51 11 3d db 8e 7e 3d 29 dc b6 bb
       -0.029457629 0.035478547 0.062147956 -0.0055804444
0002f0 fc 3c c1 3c 1c c5 8d bd 3e 10 82 3d 22 ef 87 bd
       0.02358865 -0.06922361 0.06350754 -0.06637408
000300 14 dc 74 bd f3 99 49 3c 36 ac e5 38 96 8c c1 3b
       -0.059780195 0.012304771 0.00010951648 0.0059066517
000310 7b 8b 99 bd 0b 3b 93 bd 9d 88 a4 3c 90 13 1b bd
       -0.07497307 -0.07188996 0.020084674 -0.037860453
000320 c4 2f fc 3c 00 b2 a1 bd 39 45 0c bd ac 05 3e bd
       0.030784495 -0.07895279 -0.034245703 -0.046392128
000330 c6 2a 8b 3c 04 e6 87 3d 28 61 83 3d f2 13 6e bc
       0.01698817 0.06635669 0.064150155 -0.0145311225
000340 64 99 74 bd ae 4f b5 bc 10 a6 4f 3d 5c a1 db bc
       -0.059716597 -0.02213272 0.05069548 -0.02681034
000350 3d 80 82 bd eb 33 8e 3d f9 86 05 3d b4 a5 87 bc
       -0.06372116 0.06943496 0.032599423 -0.016558506
000360 86 92 86 3d 28 0a 50 bd 7d 9b 18 bd 0d ca 39 3d
       0.06570916 -0.050790936 -0.03725766 0.045358706
000370 50 c4 05 bc f3 d5 ee bc 25 5a 25 3d fc 9d 76 3c
       -0.00816448 -0.029154753 0.04036917 0.015052315
000380 2f 4a 17 3d 92 82 da bc dc 7b 23 3c 7f 58 36 3d
       0.03693598 -0.026673589 0.009978261 0.04451799
000390 bb b8 8c 3d 34 0e 6f bc df 0f 22 3c 41 f5 96 bd
       0.06871172 -0.014590789 0.009891479 -0.07370997
0003a0 1e f7 d0 39 e2 0e 09 3d d5 e6 69 3d 08 fb 3d 3b
       0.00039856968 0.03346146 0.057104904 0.0028988738
0003b0 c3 59 9f bd a1 5b 84 3d 80 60 6c bd f3 5d c1 bc
       -0.077807926 0.06462789 -0.057709217 -0.023604369
0003c0 7d e9 0c 3d c6 6b 81 3c 89 b6 51 3c 6f 0f 7a 3d
       0.03440236 0.01579846 0.012799867 0.061049875
0003d0 61 62 67 3d f4 aa 8f 3d a5 5a 87 3d 95 af 8c 3b
       0.056490306 0.070150286 0.06609086 0.004293392
0003e0 21 36 0a bd 9e 3b 72 bd 74 df e9 bc ec 40 75 3d
       -0.033743028 -0.059138887 -0.028548934 0.059876367
0003f0 d4 17 84 bd 6b 0a 37 3d e7 0a 45 bd 28 dd 65 bb
       -0.06449857 0.04468767 -0.0481061 -0.0035074446

bias f4 [20]
000000 2a a0 64 3d 1f 55 94 bd 7d 53 4a bd 76 c1 49 bd
       0.055816807 -0.07242798 -0.049396027 -0.049256764
000010 de b5 52 3d 8c b2 89 3d a8 42 e0 3c 0f 93 dd bb
       0.051442973 0.06723508 0.027375534 -0.0067619155
000020 d0 21 12 3d 6c 5c 5b 3d 6d b2 3a bd 4d 6d 41 bd
       0.035676777 0.053554937 -0.045580316 -0.047223378
000030 ce 6a da 3c ac c1 30 3d b4 2c ce 3c 88 48 80 bc
       0.026662257 0.04315345 0.0251678 -0.015659586
000040 04 ba 22 3b 9a b0 25 3d 0f 49 7d 3d e9 a3 68 3d
       0.0024830112 0.040451623 0.061837252 0.056796942

weight f4 [20, 20, 3, 3]
000000 ff 1d 30 bd b8 bf 3d 3c 96 ec 8a 3b 69 db 2f 3c
       -0.042997357 0.011581354 0.004239629 0.010733464
000010 aa 01 7b bd 57 01 91 bd 99 68 c0 bc ac 32 89 bb
       -0.061280884 -0.07080334 -0.023487376 -0.0041869488
000020 58 53 23 3d fc c1 86 bd 5e 19 91 bc 9e af 9f 3c
       0.039874405 -0.06579968 -0.017712291 0.01949292
000030 93 ca d1 3c cd 18 1d bd 54 b4 16 3d 27 12 03 3d
       0.02560929 -0.03835373 0.036793068 0.031999733
000040 43 2e 73 3d 56 8a e1 b9 00 f4 23 bc 86 64 10 3d
       0.05937029 -0.00043018413 -0.010006905 0.035252117
000050 c2 21 06 bd fb 3c 86 bd b0 53 2d 3d a1 ff 89 3d
       -0.032747038 -0.065546 0.04231614 0.067382105
000060 aa bb 60 3d e8 aa 8b bd bf b8 94 bd 92 18 4d bd
       0.05486647 -0.06819707 -0.072618 -0.05007226
000070 c4 f9 f2 bc b4 2b 8d bd 90 7e 18 3d d6 d3 56 3d
       -0.029660113 -0.06893101 0.037230074 0.052448116
000080 f6 7e ee bc fa 2b 32 3d 66 38 6f bd 24 7f ae 3c
       -0.029113274 0.04349897 -0.058403395 0.02130086
000090 e6 38 c2 bb 50 f0 08 3d 00 4f 5d bd d9 97 02 bc
       -0.005927193 0.033432305 -0.05403042 -0.007970774
0000a0 e3 c1 10 3d 74 ff 08 3d d9 77 34 3d 91 eb a9 3c
       0.035341155 0.033446744 0.044059608 0.02074221
0000b0 67 82 d9 3c c3 f4 28 3d d4 22 37 bd 3b 7f 56 3d
       0.026551438 0.041249048 -0.04471095 0.05236743
0000c0 ed a2 fb bb ec a8 02 bd ef 61 92 bd e3 b0 c1 bc
       -0.0076793344 -0.031899378 -0.071475856 -0.023643916
0000d0 74 09 39 3d 16 d2 ad bc 4d 81 9c 3d 7f 7b 62 3d
       0.04517503 -0.02121834 0.0764185 0.055293556
0000e0 a3 b6 a2 bc e0 86 a9 bb 61 55 8c 3d 41 28 71 3d
       -0.019862479 -0.005173549 0.06852222 0.05887628
0000f0 a3 5a 88 3d 44 cb 79 3d 77 ea 24 3d ab ed fc bb
       0.066579126 0.060984865 0.040262666 -0.007718762
000100 b3 c7 46 bd 7e 25 76 3d be 88 83 3d dd b2 06 bd
       -0.04853029 0.06009435 0.06422566 -0.03288542
000110 b7 d5 32 3d ea 8c 99 3d d4 49 b3 bb 21 26 43 bd
       0.043660846 0.0749758 -0.0054714475 -0.047643784
000120 01 ab 01 3d b0 14 f3 bc 4f 56 44 bd 51 ed 6b bd
       0.031657223 -0.02967295 -0.047933873 -0.05759937
000130 5e 86 73 bd b4 90 dc 3c 50 de df 3c 05 56 06 3d
       -0.059454314 0.026924469 0.027327687 0.03279688
000140 a3 8b af 3c c2 2c cb bc 63 7c 40 3d 6a bd 94 bd
       0.021428889 -0.024801616 0.046993624 -0.0726269
000150 06 c2 57 3d ee a6 3c 3d ea f0 93 bb 4f a8 58 bb
       0.05267527 0.046057634 -0.004514803 -0.0033059304
000160 ca 18 e6 3c 51 f2 3a bd 72 47 3a bd bc a4 59 bd
       0.028087992 -0.045641247 -0.04547829 -0.05313562
000170 04 83 ce bc bb 2b 1f 3d c7 60 93 3c 3e b1 59 bd
       -0.025208957 0.038860064 0.017990483 -0.053147547
000180 bb 27 d7 3c 57 81 84 bd 51 5c 62 bd ca 61 ab bc
       0.026264062 -0.06469982 -0.05526382 -0.020920653
000190 31 7d e5 3c b8 ae 04 3d d1 ba 2c bc 7c e5 bc bc
       0.028013797 0.032393187 -0.010542587 -0.023058645
0001a0 9c d4 51 38 1d 46 86 3d f7 c5 89 bd 7b fb 71 ba
       5.002749e-05 0.06556342 -0.06727212 -0.0009230894
0001b0 0a 6c 63 bc 85 8c cb 3b 04 cf 4f bd 53 44 76 bd
       -0.013880739 0.0062118196 -0.050734535 -0.060123753
0001c0 08 b2 fe 3c 04 41 3f 3d 52 6d 14 3d d1 82 19 bd
       0.031090751 0.046692863 0.03623707 -0.037478272
0001d0 f3 32 4a 3d 38 b7 5b 3d ab 9d 0d 3c 4a 2b 9c bd
       0.049364995 0.053641528 0.008643548 -0.07625444
0001e0 f3 4c 9a 3c 17 b7 86 bb 46 1b 82 bd 6b a4 6b 3d
       0.01883552 -0.0041111815 -0.06352858 0.057529848
0001f0 1b 71 93 bd f8 8d 97 bc 44 4d e1 3b 4b a0 34 bd
       -0.071993075 -0.018500313 0.006875666 -0.04409818
000200 c4 15 98 3b c6 fc 65 3d 94 80 11 3d 1c 66 29 3d
       0.0046412665 0.056149267 0.035523012 0.041357145
000210 6e 59 be 3c fd 99 6d 3d ce a5 27 3d 8f dd e4 3c
       0.023236003 0.058008183 0.040929608 0.027937679
000220 c5 f8 ae 3c 24 59 39 3d 39 8a 1d bc 8f ec 78 bc
       0.021358857 0.045251027 -0.009615474 -0.015193119
000230 f4 7a e1 3c 60 87 3a bd d5 ba 22 bd 77 3e 1a bd
       0.027524449 -0.04553926 -0.03972896 -0.037657227
000240 d3 1e 4e bd 03 6a 9f bc e9 50 4b 3d bd 9f 9c 3c
       -0.050322365 -0.01945973 0.04963771 0.019119138
000250 bc f5 0b bc ad d1 29 bd 42 f2 0a 3d 9c 86 96 3c
       -0.008542474 -0.041459728 0.03392244 0.018374734
000260 86 2d 0b 3d be 36 8f bd 74 bf c5 bb a2 ec 87 3d
       0.03397896 -0.06992863 -0.006034786 0.06636931
000270 c7 81 5f ba bc 01 8f bd 50 aa 98 bd ad c2 5d bc
       -0.0008526113 -0.06982753 -0.074543595 -0.013535184
000280 f7 f6 98 bd ee 3a 06 3d 07 77 ab bc 23 18 51 3d
       -0.0746898 0.032771043 -0.02093078 0.05104841
000290 69 83 94 bc 64 a5 7c bb 14 fd 4d bc 3d 56 74 3d
       -0.018129067 -0.003855073 -0.012572546 0.059652556
0002a0 f6 66 50 3c a8 22 80 bd 05 18 91 3d 09 ee 19 3d
       0.01271986 -0.0625661 0.070846595 0.037580524
0002b0 b0 d3 5c bd b1 0f 8f bd 56 9d 1c 3d a9 e4 b9 3b
       -0.05391282 -0.06985415 0.038235985 0.0056730104
0002c0 ad f5 3c bc 6e 5a e8 3c df d5 93 3d 49 9b 35 bb
       -0.011533183 0.028363433 0.07218527 -0.0027710965
0002d0 49 1b 56 3d 99 ed 80 3d 7d 2c b4 3c ae f5 55 bc
       0.052272115 0.06295318 0.02199387 -0.013059063
0002e0 d0 ef 72 3d ab 0a 7c bd 06 54 77 3b ce f1 fb bc
       0.059310734 -0.06153361 0.003773929 -0.03075495
0002f0 b1 96 96 3d 71 87 52 bd ef b1 19 3c 7e 33 e9 3c
       0.07352961 -0.0513987 0.009380802 0.028466936
000300 82 35 9b 3d 78 64 1a bd 73 f2 86 bd 70 ff 0b 3d
       0.07578565 -0.03769347 -0.06589212 0.03417915
000310 10 a9 a0 3c 54 c7 73 bc e8 f4 39 3c 30 57 fc 3c
       0.019611865 -0.0148790665 0.011349894 0.030803293
000320 e0 c1 0d 3b a5 e9 1a bd 14 e7 d8 3c 18 16 71 3c
       0.002163045 -0.037820477 0.026477374 0.01471474
000330 68 07 b3 3c c0 a7 54 bd a5 c9 81 3d 22 4c 8c bd
       0.021854118 -0.05191779 0.06337289 -0.06850459
000340 09 f4 4e bd 65 86 8f bd b8 a5 dd bc 5d c9 87 3d
       -0.0505257 -0.070080556 -0.02705656 0.06630204
000350 40 9e da 3b c4 2a 1a 3d 48 3e fd 3c 30 67 22 3c
       0.006671697 0.03763844 0.030913487 0.009912297
000360 29 04 92 bc c3 83 03 bc 11 37 f6 bc 33 5c 0d 3d
       -0.01782425 -0.00802702 -0.030055555 0.034511756
000370 58 6b 68 bd 96 00 9c bd 49 69 59 3d 3f 0a 30 3c
       -0.056742996 -0.07617299 0.053078923 0.01074463
000380 9d f1 48 bd 59 86 fe 3c fd 7c 6b bd 09 7e f8 3c
       -0.049058545 0.031069921 -0.057492245 0.030333536
000390 87 ae 07 bd e6 e1 14 3c 61 38 a7 3c 92 1d 8d 3d
       -0.033125427 0.0090870615 0.020412626 0.06890406
0003a0 35 52 19 bd dc 69 b2 bc 6f e2 df bc f8 ea 08 3d
       -0.037431914 -0.021778993 -0.027329652 0.03342721
0003b0 f3 cd 82 bd b4 48 3b bd 05 85 94 3c 47 2d 2c 3d
       -0.06386938 -0.045723632 0.018129835 0.042035367
0003c0 06 37 6b 3d 07 ce 8b 3d e9 84 07 bd 95 52 3e 3c
       0.05742552 0.06826406 -0.033085737 0.011616369
0003d0 2e 39 7a 3d a8 7a 6e bd 1d f8 5e 3d 2e 28 20 3d
       0.061089687 -0.058222443 0.054435838 0.03910082
0003e0 16 29 4f 3d e7 61 6e 3c 83 57 3f 3d fa 05 53 bc
       0.050576292 0.014549709 0.046714317 -0.012879843
0003f0 57 2f 06 bd 06 a4 00 bc 03 c9 72 bd 1a 9c 1a 3d
       -0.03275999 -0.007851606 -0.05927373 0.037746526

bias f4 [20]
000000 ec bf 33 3d 91 da 10 bd 34 eb de 3c a3 98 33 bd
       0.043884203 -0.03536469 0.027211763 -0.043846738
000010 c4 45 31 3c 17 d2 79 bc 10 e4 43 bd 26 30 6d 3d
       0.010819856 -0.015247843 -0.04782492 0.057907246
000020 8c e6 23 3d 0a 7c eb bc 15 be 3a bd e5 0c 31 3d
       0.04001479 -0.02874567 -0.045591433 0.043225188
000030 ba d5 b4 bb 9a a4 08 bc 35 03 4a 3d ab 54 4a bd
       -0.0055186423 -0.008340025 0.049319465 -0.049397152
000040 db 64 42 3d 39 14 1b bd 39 ff 88 3d 1e 0e 28 3b
       0.047459465 -0.037861083 0.06689305 0.002564318

weight f4 [3, 3380]
000000 0f 62 40 bc 2a b8 74 bc 81 6d 4b bc 9d 46 38 3b
       -0.011742129 -0.014936486 -0.0124162445 0.002811826
000010 b1 98 db 3b 43 78 de bb d4 be 19 bc 42 4f 58 bc
       0.006701552 -0.0067892387 -0.009383876 -0.01320249
000020 e6 35 80 bc 84 90 47 3b f3 e9 31 bc 24 d3 91 3b
       -0.0156507 0.0030451128 -0.0108590005 0.0044502188
000030 ff 76 80 3a e7 04 19 3c c3 6b 49 bc f5 56 98 3c
       0.0009801089 0.009339548 -0.012293759 0.018596152
000040 bc 71 46 3c ff 7a 97 3c 89 65 91 3c 1d ac 36 3c
       0.012112077 0.018491266 0.017748611 0.011149433
000050 25 e2 2b bc 09 78 db bb 7b 61 cc 38 59 37 d1 bb
       -0.010490929 -0.006697659 9.745635e-05 -0.006384772
000060 d7 ef f4 bb 67 87 6c bc d8 00 0e 3c 96 58 26 3c
       -0.00747488 -0.014436579 0.008667193 0.0101529565
000070 3f 52 2d bc f8 81 59 3b bb fb 46 bc 6e 90 fe bb
       -0.010578691 0.003318904 -0.012144978 -0.007768682
000080 32 f0 3b 3b d7 68 46 bb f0 ad 39 3c 3d 3b 52 bc
       0.0028677103 -0.0030274892 0.011332974 -0.012831506
000090 9b 42 22 bc fb a7 e8 3b 63 9c 2a 3c 9e 34 80 3c
       -0.009903575 0.007100103 0.010413262 0.01565009
0000a0 fc 46 21 bc 81 fd 8e 3c c6 4e 6f 3c 3d 06 79 3c
       -0.009843584 0.017454864 0.014606183 0.015199241
0000b0 e7 2a aa ba b0 52 f2 3b 35 06 95 3c 53 e3 55 bc
       -0.0012982757 0.007395111 0.018191436 -0.013054687
0000c0 28 df 37 3b c3 94 89 bb 5e f9 7e 3c 21 f4 30 3c
       0.0028056595 -0.004198642 0.015562383 0.010800392
0000d0 22 f9 96 3c 99 13 37 3c f9 6d 8a 3c e6 d0 ce bb
       0.018429343 0.011174106 0.016898142 -0.0063115237
0000e0 54 da 67 3c d3 cb 24 3c 30 7e 4f 3c 0a 76 b7 3b
       0.014151175 0.010058361 0.012664363 0.005598788
0000f0 3a 73 57 3c e1 c3 1b bc 47 e1 10 bc 61 bf 78 3c
       0.013150031 -0.00950715 -0.008842773 0.015182347
000100 2b fb f6 bb 8e 14 e5 bb 90 7e 59 3c 83 a1 85 3b
       -0.007537266 -0.0069909757 0.013274804 0.0040780916
000110 ed aa 67 3c 47 58 29 bb ec 04 73 3c a2 c6 51 bc
       0.014139873 -0.002583997 0.014832716 -0.012803705
000120 f3 4e 7e 3c 60 66 50 3c 37 b5 54 bc 68 cd 6a 3c
       0.015521753 0.012719721 -0.012982658 0.014331199
000130 ff 07 87 3c ae 9a 9a 3c b4 39 61 bc a7 99 46 b8
       0.016483305 0.018872585 -0.013746668 -4.734998e-05
000140 b2 b3 80 3c 66 df 69 39 31 e3 4e bb 56 9f 5e 3c
       0.015710685 0.00022303834 -0.0031568522 0.013587793
000150 5c 1e 0c 3c e4 5e 08 bb ee 49 91 bb cf 15 20 bc
       0.00855216 -0.0020808512 -0.004433862 -0.009770825
000160 8a 6f 62 bc 9e c7 1a 3c 4d 7d b7 bb d5 17 68 bc
       -0.013820538 0.0094470065 -0.005599654 -0.014165838
000170 45 9d 3e bc 25 8f a1 ba 0e d3 86 bc 91 74 99 ba
       -0.011634176 -0.0012325986 -0.01645806 -0.0011707713
000180 b5 d6 93 3c 3c ae 67 3b 46 79 8b bb 9a ff 16 bb
       0.018046716 0.0035351655 -0.0042564003 -0.0023040534
000190 a9 bf 08 3c 4a 8a fe b9 7c 9d e9 3b bc d2 25 3c
       0.008346477 -0.0004854969 0.0071293693 0.010121044
0001a0 c9 01 56 bc 2c bb 10 ba b0 6b 64 ba 6d 38 6b bc
       -0.013061949 -0.0005521055 -0.00087135565 -0.014356715
0001b0 9f 5e 58 3c ee 22 9c bb 65 b6 7f b9 f4 86 96 3b
       0.013206153 -0.004764906 -0.00024386642 0.0045937244
0001c0 e1 c2 98 3c 43 76 48 bc bb 55 81 bc 5a 45 22 bc
       0.018647613 -0.012235227 -0.01578795 -0.00990423
0001d0 ee 21 9f bb 7e e0 92 3c 0b da 22 3b a7 1b 8b bc
       -0.0048563397 0.017929312 0.0024849202 -0.01698096
0001e0 a0 8b 47 3a d6 99 3f bc 70 91 0c 3c ce 57 4d 3c
       0.00076120533 -0.011694392 0.008579597 0.012533141
0001f0 5f ff 2f 3c 81 23 33 3c e4 07 4e 3c e9 80 6b 3c
       0.010742038 0.010933758 0.012575123 0.014373996
000200 c5 e5 18 bc 39 e2 55 bc f6 6b 68 3c 4c b5 9f 3c
       -0.009332125 -0.013054424 0.014185896 0.019495629
000210 2c dd 5c 3b e8 20 05 bc 86 e4 5a bc bb e1 1a bc
       0.0033701165 -0.008125521 -0.013360148 -0.009453232
000220 59 cd 9f 3b 34 de 27 bc 56 b7 d9 b9 ba 70 81 3c
       0.0048767743 -0.010245848 -0.0004152606 0.015800823
000230 5f 26 24 ba 6f 5e a9 ba b4 83 11 3b 13 af e9 bb
       -0.0006261821 -0.001292182 0.0022203745 -0.007131466
000240 df 78 bd 3b a3 aa d9 3b 07 66 85 3c e5 80 99 3b
       0.005782231 0.006642656 0.016284002 0.004684555
000250 40 8c de ba e3 e1 67 3c 05 b1 36 3c 2f 72 1f bc
       -0.0016979054 0.014152977 0.011150603 -0.009731813
000260 e4 f8 0b 3c 7a 6b 3b bb 28 1d 32 bc 4d a7 e9 3a
       0.008543227 -0.0028597997 -0.010871209 0.0017826349
000270 48 9e 80 3c 43 05 77 3c c1 b7 4e 3c f9 3a 6c 3c
       0.015700474 0.015076938 0.0126170525 0.014418357
000280 32 66 76 3b 38 7c 8b 3c c7 a0 fc 3b 58 80 ae 3a
       0.0037597534 0.017027006 0.007709596 0.0013313396
000290 9f 29 7c bc ce ba 8f ba 99 c5 84 3c dc b3 26 bc
       -0.015390783 -0.0010965706 0.016207503 -0.010174718
0002a0 ca 4f 6e bc 32 aa 81 bc 68 a6 6b 3c 3b 52 4f bb
       -0.01454539 -0.015828226 0.014382936 -0.0031634707
0002b0 06 77 75 3c 29 7d 1f 3b 11 b7 6a 3b b3 a2 83 3c
       0.014981991 0.0024336076 0.0035814682 0.016068792
0002c0 7c 42 79 bb 1a 1c ce ba b8 f4 6d 3c 73 b0 63 bc
       -0.0038034013 -0.0015724928 0.0145236775 -0.013897049
0002d0 bb 16 a3 bc 6a d3 06 3b 61 ce 27 bb e2 2c a7 3b
       -0.0199083 0.002057279 -0.002560519 0.005101786
0002e0 36 c7 38 bc 85 1e 0a bc a2 48 fd 3b 22 36 03 bc
       -0.011277964 -0.008430128 0.007729606 -0.008008512
0002f0 24 02 c8 3b 87 a7 90 bb 84 43 a0 ba 91 74 aa bb
       0.006103771 -0.004414502 -0.0012227152 -0.005201884
000300 b4 c3 8e 3b 91 59 a2 3a dd 47 d3 3b d4 2b e1 3b
       0.0043568257 0.0012386312 0.0064477758 0.00687168
000310 19 b4 38 bb e6 a7 76 bc 49 97 a2 bc ea 57 de b9
       -0.0028183518 -0.015054679 -0.019847529 -0.0004240864
000320 c2 9c 01 3c 7f ed 86 3c a4 f7 b0 3b 6e f4 69 3c
       0.007910909 0.016470669 0.005400615 0.014279468
000330 6d 00 f6 3b e4 b8 3c 3b 30 30 2a 3b c8 6c 59 bc
       0.007507375 0.0028796727 0.0025968663 -0.013270564
000340 1d 0c 39 bc bf 02 67 3b 77 87 42 bc 16 62 71 bc
       -0.011294392 0.003524944 -0.011873118 -0.014732858
000350 a9 23 50 3c cc 3b 40 3c 94 f6 ce 3b 7e 52 38 bc
       0.012703815 0.011733007 0.0063160155 -0.011250136
000360 2e 7b 86 3a 75 13 bf bb 6a d4 22 bc a8 ff 54 bc
       0.0010260099 -0.005831177 -0.009938339 -0.013000406
000370 bb b7 e2 bb 8c 75 5b 3c ad b4 fe bb 45 66 4e 3c
       -0.006918875 0.013394725 -0.007773003 0.012597625
000380 cc 29 42 3c 8e d2 72 bc 1f 8a b8 3b 26 82 17 3c
       0.011850785 -0.014820708 0.0056316997 0.009247338
000390 16 1a e1 ba 30 f8 9c 38 c8 a4 aa 3c 89 f8 c8 3b
       -0.0017173912 7.484888e-05 0.020830527 0.0061331433
0003a0 1e 93 50 3c e2 59 64 3b 70 46 86 3c 4b 7d 01 3c
       0.012730388 0.0034843613 0.01639101 0.007903407
0003b0 44 4e 53 bb 05 77 43 3c b3 8f 85 bb 3c 3e 2d bc
       -0.0032242695 0.011930232 -0.004075968 -0.01057392
0003c0 a3 57 3a 3c 65 b1 d9 3b fa 8b 2f 3a 42 3c 34 3b
       0.011373433 0.0066434615 0.00066965783 0.0027501737
0003d0 ec eb a5 3c 10 12 72 3a 45 bb 32 bc 68 e1 e9 ba
       0.020254098 0.0009234259 -0.010908906 -0.0017843666
0003e0 c7 5c 4f bb 32 08 b0 3b c2 0a c3 3c a7 a1 73 3c
       -0.0031640993 0.0053720707 0.02380884 0.014870084
0003f0 1d 51 7f 3b ad 99 87 3c 5c f9 1f bc 25 de 62 3c
       0.003895826 0.01655277 -0.009764042 0.013846909

bias f4 [3]
000000 15 28 7b 3b 98 4e 84 bc d2 18 31 3b
       0.0038323451 -0.016150758 0.002702285
